ckpts/ring_attractor/example_model.ckpt (torch, 523208 bytes, 73 tensors)

ssm.nl_filter.dynamics_mod.log_Q f4 [2]
0	0xc0b5afed	-5.6777253
1	0xc0b62319	-5.6917844

ssm.nl_filter.dynamics_mod.mean_fn.gru_cell.weight_hh f4 [192, 64]
0	0xbdc7acb4	-0.097497374
1	0x3df3ffb5	0.119140066
2	0xbbfd567c	-0.007731257
3	0x3c50027f	0.012695908
4	0xbcb701e8	-0.022339776
5	0x3c62a6b3	0.0138336895
6	0x3e00ccd0	0.1257813
7	0x3d6e12c6	0.058123372
8	0xbd9f2e97	-0.07772558
9	0xbd9683a6	-0.07349329
10	0xbdc651fa	-0.096836045
11	0x3a61dd1a	0.00086160155
12	0xbd7b519d	-0.06135713
13	0xbcddd408	-0.027078643
14	0x3dfd9c8a	0.12383373
15	0x3c0e6e4b	0.008693288
16	0xbdf68b97	-0.120383434
17	0x3cfd38fa	0.030910958
18	0xbda0650c	-0.07831773
19	0x3d9a49e1	0.075336225
20	0x3d1f8983	0.0389495
21	0xbdd021e1	-0.10162712
22	0x3dc54139	0.09631581
23	0x3dbdbebb	0.092648946
24	0x3d4124b7	0.047154155
25	0x3d73e773	0.0595469
26	0x3b1b3547	0.0023682879
27	0x3d3a82e2	0.045534976
28	0x3dad213e	0.08453606
29	0x3e0a0caa	0.13481393
30	0x3dba31f9	0.09091563
31	0x3aa36d7c	0.0012468542
32	0xbdc5ded9	-0.096616454
33	0x3d336130	0.043793857
34	0xbd938265	-0.07202605
35	0xbdf73133	-0.12069931
36	0xbd40b7d3	-0.04705031
37	0xbd9b11db	-0.07571765
38	0x3ca3b522	0.019983832
39	0xbc4cb954	-0.012495358
40	0xbd960915	-0.07325951
41	0x3de02b21	0.10945726
42	0x3d0ecd76	0.03486391
43	0xbdf4819d	-0.11938784
44	0xbd666f6d	-0.056258608
45	0x3c98b617	0.018641515
46	0xbdbfb634	-0.09360924
47	0x3df6c868	0.12049943
48	0x3db53d0c	0.088495344
49	0x3dcc6548	0.09980255
50	0xbe0f06f0	-0.1396749
51	0x3ca88992	0.020573411
52	0xbe06df95	-0.13171227
53	0xbd8c4631	-0.068493254
54	0x3ca1c5f8	0.01974772
55	0x3d665b95	0.056239683
56	0x3d297e5d	0.041380275
57	0x3d8b2570	0.0679425
58	0xbd38bd9c	-0.0451027
59	0x3dbae695	0.09126011
60	0x3dadf275	0.08493511
61	0x3d8a0e2c	0.06740984
62	0xbd386df2	-0.045026727
63	0xbb3eb475	-0.002909926
64	0xbe08efd9	-0.13372745
65	0x3c03fa40	0.00805527
66	0xbd9f3023	-0.07772853
67	0x3d356fd2	0.044296093
68	0x3de5afd9	0.11215181
69	0x3d58ad13	0.05289943
70	0xba8830eb	-0.0010390555
71	0xbd31a8d1	-0.043373886
72	0x3bc1597e	0.005900561
73	0xbde6f261	-0.11276699
74	0x3d6caa2e	0.057779483
75	0xbd2b8a9f	-0.041880246
76	0x3caa52d1	0.020791443
77	0x3de7ed38	0.11324543
78	0xbc3b3cec	-0.011428099
79	0x3def2935	0.116777815
80	0x3d822671	0.06354988
81	0xbd74d64c	-0.059774682
82	0xbcafaa10	-0.021443397
83	0x3dbc9d87	0.092097335
84	0xbc6ace04	-0.0143313445
85	0xbdabaea9	-0.08382923
86	0x3dec01c2	0.11523773
87	0x3d6fa45c	0.058506355
88	0xba531458	-0.00080520427
89	0xbd168115	-0.036744196
90	0x3daa9abf	0.08330297
91	0x3c92faa1	0.017941775
92	0xbdcf80b7	-0.10131972
93	0xbde116bc	-0.10990664
94	0x3ddac4a6	0.10682039
95	0xbce86c8a	-0.028372068
96	0xbdeed18a	-0.1166106
97	0xbde6e78a	-0.11274631
98	0xbdc0dab7	-0.094167165
99	0x3db0a2ba	0.08624788
100	0x3d5f4425	0.054508347
101	0x3d21e3f2	0.039524026
102	0x3dc3c6d6	0.09559409
103	0x3d58ee01	0.052961353
104	0x3d75409c	0.05987607
105	0x3d086f84	0.033309475
106	0xbdee54dc	-0.116372794
107	0xbd576f66	-0.052596472
108	0x3c67f20c	0.01415683
109	0xbda0cb1c	-0.0785124
110	0x3d2ccd39	0.042187903
111	0xbde8865f	-0.11353754
112	0x3dd52dcc	0.10409126
113	0xbdd3d355	-0.10343043
114	0xbdc4ad8d	-0.09603415
115	0x3e031f0a	0.12804809
116	0x3ddeadd0	0.10872996
117	0x3dfc6f06	0.123258635
118	0x3d5cab2c	0.05387418
119	0xbd55ec3a	-0.052227236
120	0x3dc9b95b	0.09849807
121	0xbdd79110	-0.10525715
122	0xbdff28f9	-0.12458987
123	0x3dd2e396	0.10297315
124	0xbe0fd52f	-0.14046167
125	0x3d5733be	0.05253958
126	0xbddf3e5a	-0.109005645
127	0xbd9b051b	-0.07569333
128	0x3d91c181	0.07116986
129	0x3daf157f	0.08549022
130	0xbd022dbb	-0.031781893
131	0x3da435bb	0.08018061
132	0xbced955a	-0.02900188
133	0xbd8a27a5	-0.06745843
134	0xbe12a224	-0.14319664
135	0xbd9f2d61	-0.07772327
136	0xbd9c5a6e	-0.076344356
137	0xbda3f9e8	-0.0800665
138	0x3d35eacc	0.044413373
139	0xbcd52529	-0.026018696
140	0x3caadab0	0.020856231
141	0xbdeb3a06	-0.114856765
142	0xbae38f28	-0.001736139
143	0xbd99ad73	-0.07503786
144	0x3da1e671	0.07905281
145	0x3dcc9b01	0.09990502
146	0x3c5c67d3	0.013452488
147	0x3dadc467	0.084847264
148	0xbd6ffdb8	-0.058591574
149	0x3d8ed8ee	0.0697497
150	0xbd53d9b6	-0.051721297
151	0x3dde20db	0.108461104
152	0x3cef6b1b	0.029225877
153	0x3d0e2084	0.034698978
154	0x3ddd1d39	0.107965894
155	0xbce1bd20	-0.027556002
156	0xbd818076	-0.0632333
157	0x3ddf7166	0.10910301
158	0xbd551a4a	-0.052027024
159	0x3d0c8f02	0.03431607
160	0x3ccd2bb2	0.02504525
161	0x3aab02c5	0.001304709
162	0xbd8916dc	-0.06693813
163	0x3ddc1710	0.10746586
164	0x3d1b1309	0.03785995
165	0xbddd4751	-0.10804618
166	0x3e10ed69	0.14153065
167	0xbd9fe42c	-0.07807192
168	0xbda77b15	-0.08177773
169	0x3d86fa95	0.065907635
170	0x3cb88eb7	0.02252899
171	0x3da54793	0.08070292
172	0x3dc1f919	0.0947134
173	0x3cdd14a1	0.026987376
174	0xbdfa03d2	-0.1220776
175	0x3d9e4153	0.07727303
176	0x3d47b45c	0.04875599
177	0x3dba5d35	0.09099809
178	0x3d8f3e2a	0.06994279
179	0xbdef1e88	-0.11675745
180	0x3d90bcc0	0.07067251
181	0xbdd593be	-0.1042857
182	0xbde37c0a	-0.11107643
183	0x3dcb8c7e	0.09938906
184	0xbd4b6a8d	-0.04966216
185	0xbcc78b32	-0.024358366
186	0x3ddfa713	0.10920539
187	0x3da851f7	0.082187586
188	0x3c84aed2	0.016196642
189	0xbdaf9302	-0.085729614
190	0xbde98d54	-0.11403909
191	0xbc2739be	-0.010206638
192	0x3cbb1e7d	0.022841686
193	0x3d8b9da4	0.06817177
194	0xbb84b013	-0.00404931
195	0x3dfaa30c	0.1223813
196	0xbdf306c2	-0.11866523
197	0x3e04203c	0.12902921
198	0xbb81487a	-0.0039454075
199	0x3dd02dfc	0.10165021
200	0x3d1d2e83	0.038374435
201	0x3cae472d	0.021274174
202	0xbdf3b1cd	-0.11899147
203	0xbd1cd8cf	-0.038292702
204	0xbe17a941	-0.14810659
205	0xbe0c8bad	-0.13725157
206	0xbd33f7d5	-0.043937523
207	0x3dde8764	0.108656675
208	0x3dc112cb	0.094274126
209	0xbd29aa8d	-0.041422416
210	0xbb854e03	-0.0040681376
211	0x3e01118f	0.12604354
212	0xbc89b099	-0.016807841
213	0xbcfd60c5	-0.030929932
214	0x3e23a59b	0.15981142
215	0xbd6eaa1c	-0.058267698
216	0x3d989a69	0.074513264
217	0x3da606bf	0.081067555
218	0xbd69965d	-0.057028163
219	0x3d3961ba	0.045259215
220	0x3d81d7cc	0.06339988
221	0xbd9e2e80	-0.07723713
222	0xbd97d36c	-0.074133724
223	0x3d4fdd5f	0.050748225
224	0xbdf99035	-0.121857084
225	0x3e17caf0	0.14823508
226	0x3d104b93	0.035228323
227	0x3dd13dd6	0.102168724
228	0x3ce86249	0.028367179
229	0x3ce79738	0.028270349
230	0x3d4ad0c4	0.0495155
231	0xbca2e5b9	-0.01988493
232	0xbdc25f03	-0.09490778
233	0xbd6bb978	-0.057549924
234	0x3d8d755b	0.069071494
235	0x3c347f04	0.011016611
236	0x3e0c67a1	0.13711406
237	0xbd7ad096	-0.06123408
238	0xbb2212b7	-0.0024730393
239	0xbdd4658f	-0.10370933
240	0x3ce5b08a	0.028038282
241	0x3cc7971b	0.024364045
242	0xbb2b0a76	-0.0026098765
243	0xbd45235e	-0.048129432
244	0x3e41c38a	0.18922248
245	0x3e232c41	0.1593485
246	0x3d2696f5	0.040671308
247	0x3db4f373	0.08835497
248	0xbd97ffa8	-0.074218094
249	0x3b77ebf4	0.0037829848
250	0xbe229624	-0.15877587
251	0xbcc322e6	-0.023820352
252	0xbbb19f7b	-0.005420623
253	0x3cc7faca	0.024411578
254	0x3de6aa7c	0.11262986
255	0xbd6b6070	-0.057465017

ssm.nl_filter.dynamics_mod.mean_fn.gru_cell.bias_ih f4 [192]
0	0x3d2c4d73	0.04206605
1	0xbcec0bd2	-0.02881423
2	0xbd76efa4	-0.060287133
3	0xbd51d8a1	-0.051231984
4	0x3ddfdd31	0.10930861
5	0xbe1c5de2	-0.15270188
6	0x3d4a474a	0.049384393
7	0xbd33bc03	-0.043880474
8	0x3db69da1	0.08916784
9	0xbd396946	-0.045266412
10	0x3caa8241	0.020814063
11	0xbe01726b	-0.12641303
12	0x3d3e7221	0.04649556
13	0x3beb6849	0.0071840626
14	0xbdcc19d2	-0.09965862
15	0xbdd302df	-0.10303282
16	0xbd50645c	-0.05087696
17	0x3d72387b	0.059135895
18	0x3e191e4b	0.14952962
19	0xbc8a3d18	-0.016874835
20	0x3d015f83	0.031585228
21	0x3df48145	0.11938719
22	0xbd26adee	-0.040693216
23	0xbe09c340	-0.13453388
24	0x3dc14fd1	0.09439052
25	0xbb916db5	-0.004438127
26	0xbc9e0d0e	-0.019293334
27	0x3e022830	0.12710643
28	0x3cbf3a54	0.023343243
29	0x3dd7774f	0.10520803
30	0x3bac10e4	0.005251037
31	0x3cffa2a1	0.031205477
32	0xbd9eafed	-0.07748399
33	0xbc4457cf	-0.011983826
34	0x3d13ca5e	0.036081664
35	0x3df30955	0.11867014
36	0xbda409db	-0.08009692
37	0xbdb1adfe	-0.086757645
38	0x3df5bf83	0.119994186
39	0xbd5bfa73	-0.053705644
40	0xbad72a36	-0.0016415778
41	0x3d9705a4	0.07374123
42	0xbc2901d2	-0.010315375
43	0x3d58628e	0.052828364
44	0xbc311424	-0.010808025
45	0x3c1abfb8	0.009445123
46	0x3ddda803	0.10823061
47	0x3bd0ae81	0.0063684587
48	0x3d21a71f	0.03946602
49	0xbdc8fcec	-0.09813866
50	0x3c9d7081	0.019218685
51	0x3db3f57e	0.08787058
52	0x3d7a519e	0.061112992
53	0x3d6b6a26	0.057474278
54	0x3dc05d7e	0.09392832
55	0x3d985746	0.07438521
56	0xbd46311e	-0.048386686
57	0x3d411746	0.047141336
58	0x3c93f334	0.018060304
59	0x3dc4ec2d	0.096153595
60	0x3de1ba26	0.11021833
61	0xbd486a58	-0.048929542
62	0x3cdd4479	0.02701019
63	0x3db490fb	0.08816715
64	0x3d7f5e34	0.0623457
65	0xbe0c9de3	-0.13732104
66	0xbdca84b0	-0.098885894
67	0x3cadf26e	0.021233764
68	0x3dcfe4a1	0.101510294
69	0xbdb2434c	-0.08704242
70	0x3cdc2759	0.026874231
71	0xbdda6dfd	-0.1066551
72	0xbd543b5c	-0.051814422
73	0x3e052285	0.1300145
74	0xbd64df31	-0.055876914
75	0x3b8502f2	0.004059189
76	0x3cbee265	0.023301313
77	0x3d82e81d	0.06391928
78	0xbd5e7252	-0.054308243
79	0xbd940795	-0.07228009
80	0xbcf23009	-0.02956392
81	0xbc406268	-0.011742212
82	0x3d3630b6	0.044480048
83	0x3d670188	0.056397945
84	0x3e07eba7	0.13273488
85	0x3d3d3de8	0.046201617
86	0xbddd7c6c	-0.10814747
87	0xbcfc149c	-0.030771546
88	0x3d1b72cb	0.037951272
89	0xbce4968a	-0.027903814
90	0xbcc83f97	-0.024444385
91	0x3da80625	0.08204297
92	0xbd5499da	-0.051904537
93	0xbe00ebce	-0.12589952
94	0xbd8670cc	-0.06564483
95	0x3dcf6ed6	0.10128562
96	0x3d24824d	0.040163327
97	0x3de82251	0.1133467
98	0x3d715609	0.05891994
99	0x3d88c085	0.06677345
100	0x3d825f0d	0.06365786
101	0xbd9c79bb	-0.07640406
102	0x3e01a346	0.1265994
103	0x3d699e41	0.05703569
104	0xbd88cee0	-0.06680083
105	0x3dec725d	0.115452506
106	0xbe13f0a4	-0.14447266
107	0x3d2070a4	0.039169922
108	0xbc505f95	-0.012718101
109	0x3d48d7fb	0.0490341
110	0xbd7f42cc	-0.06231956
111	0xbd89f365	-0.06735877
112	0xbc9c0044	-0.019043095
113	0xbcf6582a	-0.030071337
114	0xbdc2012c	-0.0947288
115	0xbd9a70d5	-0.07541052
116	0xbdd6cb81	-0.10488034
117	0x3d9a586f	0.075363986
118	0xbd02fc6e	-0.031979017
119	0xbd4e4145	-0.050355215
120	0xbdc44de1	-0.09585167
121	0xbdb42793	-0.08796611
122	0x3d898168	0.067141354
123	0xbceca6e2	-0.02888817
124	0x3dd8570d	0.105634786
125	0xbc1cd6b8	-0.009572677
126	0xbda2e2ca	-0.07953413
127	0x3cf49f64	0.02986116
128	0xbd328dcb	-0.043592256
129	0xbdf4c7b0	-0.1195215
130	0xbb7a64a5	-0.0038206961
131	0x3ad334d9	0.0016113772
132	0x3dfd0452	0.1235434
133	0x3ca3bc5e	0.019987281
134	0xbdc731fa	-0.09726329
135	0xbd962026	-0.073303506
136	0x3e04f63e	0.12984559
137	0x3d908a07	0.070575766
138	0x3b0bb491	0.0021317343
139	0x3b26d0c2	0.002545402
140	0x3d332933	0.043740463
141	0xbd778e52	-0.06043846
142	0xbdb63c54	-0.088982254
143	0x3d714184	0.05890037
144	0x3de0943d	0.10965774
145	0x3acdbc31	0.0015696344
146	0x3d790d03	0.060803425
147	0xbda83706	-0.0821362
148	0x3d34e451	0.044163052
149	0xbd512664	-0.051062003
150	0xbd3d70bd	-0.046250094
151	0x3d425d82	0.047452457
152	0xbaba9e44	-0.0014237841
153	0xbce1c4ee	-0.027559724
154	0xbd7103a6	-0.05884137
155	0xbc28ca01	-0.010302068
156	0x3db6fae7	0.089345746
157	0x3cdec0ed	0.027191604
158	0xbd2ef686	-0.04271557
159	0xbd9783fc	-0.07398221
160	0xbd55a25e	-0.0521568
161	0xbd186550	-0.037205994
162	0x3daca2de	0.08429502
163	0x3ca2ca71	0.019871922
164	0xbcfdaae7	-0.030965282
165	0xbc8111ae	-0.0157555
166	0x3d12394a	0.035699166
167	0x3ddbfaea	0.107412174
168	0x3d062317	0.032748308
169	0x3bd4a15d	0.0064889626
170	0xbd56ecf8	-0.052472085
171	0xbc3125e8	-0.01081226
172	0xbd491f63	-0.0491022
173	0x3d872839	0.06599469
174	0x3dda355c	0.10654709
175	0x3d817e1d	0.06322882
176	0xbdb5ccad	-0.088769294
177	0xbd3de2f4	-0.046359017
178	0xbdace7b5	-0.08442632
179	0xbc1beedc	-0.009517398
180	0xbda49ac2	-0.0803733
181	0x3d64295f	0.055703517
182	0x3cd0f251	0.02550617
183	0x3dc38c6b	0.09548267
184	0x3db78c32	0.08962287
185	0xbdb47a59	-0.088123985
186	0xbdb033ba	-0.08603616
187	0xbdd994da	-0.10624094
188	0x3d26aae2	0.04069031
189	0x3df06eff	0.11739921
190	0x3ba9c314	0.005180726
191	0x3dcd0dd4	0.10012403

ssm.nl_filter.dynamics_mod.mean_fn.gru_cell.bias_hh f4 [192]
0	0xbd8bce47	-0.06826454
1	0x3ceb6a62	0.02873725
2	0xbb80768f	-0.0039203833
3	0x3d2c6993	0.04209287
4	0x3d97062b	0.07374223
5	0x3c6f7df3	0.014617431
6	0x3e2a8a4e	0.16654322
7	0xbdac8c12	-0.08425154
8	0xbd63ba32	-0.05559749
9	0xbddf6f25	-0.10909871
10	0xbcf22fff	-0.029563902
11	0x3b880480	0.004150927
12	0x3d866dcb	0.0656391
13	0x3d93ca5f	0.072163336
14	0xbda9928a	-0.08279903
15	0x3d31ad0a	0.043377914
16	0x3c3f86b6	0.011689832
17	0xbdc33da2	-0.0953324
18	0xbc4bbcf4	-0.012435187
19	0xbd6ce0a4	-0.05783142
20	0x3d7b874c	0.061408326
21	0x3da58757	0.08082455
22	0x3d4abcfa	0.04949663
23	0x3dcd949b	0.1003811
24	0xbda61825	-0.08110074
25	0xbc37c126	-0.011215484
26	0x3d0dba35	0.03460141
27	0xbd078a98	-0.033091158
28	0x3dc3d8b7	0.095628195
29	0x3d63eb59	0.055644367
30	0xbd3a1549	-0.045430455
31	0x3d7d83cb	0.061893266
32	0x3b85bcc7	0.004081342
33	0xbca1dc0d	-0.019758249
34	0xbd5c4314	-0.05377491
35	0xbd521cd8	-0.05129704
36	0x3d0badfe	0.03410148
37	0x3de353c8	0.110999644
38	0x3d0a176c	0.033713743
39	0xbbe36fc9	-0.006940816
40	0x3dcde51c	0.10053465
41	0xbd244a2e	-0.040109806
42	0x3d3410f0	0.043961465
43	0xbd1dca8a	-0.038523234
44	0x3d93978b	0.07206639
45	0x3e04415f	0.12915562
46	0xbbcb09c5	-0.006196233
47	0x3d0d971d	0.03456794
48	0x3d44f472	0.048084684
49	0xbdb3989a	-0.08769341
50	0xbce9bac9	-0.028531449
51	0xbcc78ad4	-0.02435819
52	0x3dd5501c	0.1041567
53	0xbcc1cb4c	-0.02365651
54	0x3dc23d22	0.094843164
55	0xbd7906f7	-0.060797658
56	0xbda8d086	-0.08242898
57	0x3db83459	0.089943595
58	0xbd622de0	-0.05521953
59	0x3c8422f5	0.01612995
60	0x3cc47866	0.023983192
61	0xbd3e58c8	-0.046471387
62	0x3dab9902	0.08378793
63	0x3c896c70	0.01677534
64	0xbdd649d8	-0.10463303
65	0x3d2be944	0.041970506
66	0x3d9c50bc	0.07632586
67	0xbdd75032	-0.10513343
68	0x3b270ab9	0.002548857
69	0x3cfca32d	0.030839527
70	0xbdaa6313	-0.08319678
71	0x3df62d99	0.12020416
72	0xbd2db264	-0.042406455
73	0xbd0785b4	-0.033086494
74	0xbd4711fb	-0.048601132
75	0xbdba4628	-0.090954125
76	0x3d5fcbad	0.0546376
77	0x3d979b9c	0.07402727
78	0x3ddc26b6	0.10749571
79	0xbd90e757	-0.070753746
80	0x3db49b0d	0.08818636
81	0x3cbd5f63	0.023116773
82	0x3e230493	0.15919714
83	0xb983cca8	-0.00025138748
84	0x3cc3460a	0.023837108
85	0xbd6243d6	-0.055240475
86	0x3ca9bc59	0.020719694
87	0xbd7a54b4	-0.061115935
88	0x3d92fc74	0.07177058
89	0xbc96ae42	-0.01839364
90	0xbdfe4b38	-0.124166906
91	0x3deff037	0.11715739
92	0x3c381aa4	0.01123682
93	0x3cebe8c6	0.028797518
94	0x3da80521	0.08204103
95	0x3da4cd0b	0.08046921
96	0x3ce05b9f	0.027387438
97	0x3dd2807b	0.10278412
98	0x3e321f6e	0.17394802
99	0xb8eb89f8	-0.00011231372
100	0x3e28a81b	0.16470377
101	0x3ca959ba	0.020672668
102	0x3bb6729e	0.0055678627
103	0x3dd298ec	0.10283074
104	0x3d84fc5c	0.06493446
105	0xbcf2d317	-0.029641671
106	0xbd2a4cf3	-0.04157729
107	0x3d98a388	0.07453066
108	0xbe055fc3	-0.13024811
109	0xbe1a3d6c	-0.15062493
110	0xbd82b934	-0.06382981
111	0x3d1630b3	0.036667537
112	0xbc7023b9	-0.014656954
113	0xbdb92680	-0.090405464
114	0x3d82aa9c	0.063801974
115	0xbcfa4215	-0.030549088
116	0xbd918dbf	-0.07107114
117	0x3e0c3d45	0.13695247
118	0x3dba8116	0.091066524
119	0x3da6fe9b	0.08154031
120	0xbd9f99d3	-0.077930115
121	0x3e00cc30	0.12577891
122	0x3db2ee46	0.08736853
123	0x3dce743e	0.10080765
124	0xbdae524b	-0.0851179
125	0xbd250aa0	-0.040293336
126	0xbc89f596	-0.016840737
127	0x3d2ad1bf	0.041703936
128	0x3d7a5851	0.06111938
129	0x3dc6128f	0.096715085
130	0xbad5526a	-0.0016275172
131	0xbc92598a	-0.017864961
132	0xbddea17f	-0.10870647
133	0xbd116a78	-0.035501927
134	0xbba72baa	-0.0051016407
135	0x3df698b7	0.12040847
136	0x3dc2d534	0.095133215
137	0xbc097d43	-0.008391681
138	0x3d8785ee	0.06617342
139	0x3d93aa24	0.07210186
140	0xbccff404	-0.02538491
141	0xbdd36d47	-0.103235774
142	0xbdbcb016	-0.09213273
143	0xbdbaa3bb	-0.0911326
144	0x3d1898ca	0.037255086
145	0x3b4bb0d9	0.0031080751
146	0xbd560201	-0.052248005
147	0x3db138a5	0.08653382
148	0x3c615a0b	0.013754378
149	0xbd0eb253	-0.034838032
150	0xbd94fe6d	-0.0727509
151	0xbce50c24	-0.02795989
152	0xbde41a15	-0.11137787
153	0xbcc32b62	-0.023824397
154	0x3ddff46f	0.10935294
155	0x3b3cd035	0.0028810624
156	0x3c6843ae	0.014176292
157	0x3d223869	0.03960458
158	0x3d1d1f1e	0.038359754
159	0x3d10e054	0.035370186
160	0x3d08d4d6	0.0334061
161	0xbd916948	-0.07100159
162	0xbdd6c5ba	-0.10486932
163	0x3d0911ea	0.03346435
164	0x3d0df6a5	0.034659047
165	0xbc995260	-0.018716037
166	0x3b5144aa	0.0031931796
167	0x3dc20fc7	0.094756655
168	0x3de06556	0.10956828
169	0x3d89c2d2	0.06726612
170	0x3d7b51f5	0.061357457
171	0xbd5d3c89	-0.05401281
172	0x3de91960	0.11381793
173	0xbd293030	-0.04130572
174	0xbe01707b	-0.12640564
175	0x3d714408	0.05890277
176	0xbdac76de	-0.084211096
177	0xbcea7534	-0.02862034
178	0xbd903c2b	-0.07042726
179	0x3dbb7286	0.09152703
180	0xbd6a17e5	-0.057151694
181	0x3d6e3207	0.05815318
182	0xbd9639e7	-0.07335263
183	0x3d2bee91	0.04197556
184	0x3dea3610	0.11436093
185	0xbdbae2eb	-0.091253124
186	0xbdf6b1c5	-0.120456256
187	0x3d805d9b	0.06267854
188	0xbd9c8950	-0.07643378
189	0x3ce5e01b	0.028060963
190	0x3cad91fe	0.021187779
191	0x3d876626	0.0661128

ssm.nl_filter.dynamics_mod.mean_fn.h_to_z.weight f4 [2, 64]
0	0xbda1d8b2	-0.079026595
1	0xbb765918	-0.0037589725
2	0xbdf38c7b	-0.11892029
3	0x3d0641d8	0.032777637
4	0x3b1af297	0.002364313
5	0xbd31fd5c	-0.043454513
6	0x3e0570a0	0.13031244
7	0x3cbd922b	0.023140987
8	0x3d1c6975	0.03818651
9	0xbd896c6d	-0.06710134
10	0xbd4850a9	-0.04890505
11	0xbdda7cb3	-0.10668316
12	0xbde47396	-0.11154859
13	0xbd6931d1	-0.056932274
14	0x3b03aa47	0.0020090507
15	0x3e03f83a	0.1288766
16	0xbe05ef6e	-0.13079616
17	0xbcee8221	-0.029114785
18	0xbe0f66ad	-0.14004011
19	0x3d38e30b	0.0451384
20	0xbd28a118	-0.041169256
21	0x3d1607b3	0.036628436
22	0x3dae4303	0.08508875
23	0xbd8c0ded	-0.06838594
24	0x3cec4c0f	0.028844861
25	0x3dc89130	0.09793317
26	0xbd30fbab	-0.04320876
27	0x3cfa15f4	0.030528046
28	0xbdc050b7	-0.09390395
29	0x3d7bbad9	0.06145749
30	0x3dabe430	0.08393133
31	0x3df70233	0.12060966
32	0xbd6d22c1	-0.057894472
33	0xbd00d0eb	-0.03144924
34	0xbcfb24e1	-0.030657234
35	0x3db53bd9	0.08849306
36	0xbca5e9c4	-0.02025307
37	0x3e04436f	0.12916349
38	0xbe0ce40f	-0.13758872
39	0x3d058360	0.032595992
40	0x3d6292f5	0.05531593
41	0x3d18177d	0.037131775
42	0xbceee8a9	-0.029163675
43	0xbd7323dc	-0.05936037
44	0x3c84387b	0.016140213
45	0x3b8cb3b2	0.0042938823
46	0xbddc6911	-0.10762227
47	0x3e1c89d8	0.15286958
48	0xbcb961d9	-0.022629665
49	0xbc8eec6b	-0.017446717
50	0xbdabdf71	-0.083922274
51	0xbdaad174	-0.08340731
52	0xbb97d394	-0.0046333764
53	0xbdfb46e2	-0.12269379
54	0xbc00e099	-0.007866048
55	0xbdb3a140	-0.0877099
56	0x3c0813c2	0.008305492
57	0xbe0b4515	-0.13600571
58	0x3ca7a59f	0.020464716
59	0x3d7b7e70	0.061399877
60	0x3d83b63a	0.06431241
61	0xbdfdca63	-0.12392118
62	0xbd09c71d	-0.033637155
63	0xb9b3e032	-0.0003430858
64	0x3c8fdd84	0.017561682
65	0xbbcb421b	-0.0062029487
66	0xbaa7bf7b	-0.0012798154
67	0xbd0ab730	-0.033866107
68	0xbdb2826a	-0.08716281
69	0x3d38fa63	0.045160662
70	0xbda53d94	-0.08068386
71	0xbd7a1c92	-0.061062403
72	0xbc8c4635	-0.017123321
73	0xbe0b013f	-0.13574694
74	0xbda78799	-0.0818016
75	0xbda3e0da	-0.080018714
76	0x3d91114f	0.070833795
77	0xbcafd68b	-0.021464607
78	0x3d17b93b	0.037041884
79	0x3e02dc30	0.12779307
80	0x3df97fba	0.12182565
81	0x3de63a63	0.11241605
82	0xbd5c59bd	-0.05379652
83	0xbdb1dcc6	-0.08684687
84	0x3dbbcf6e	0.091704234
85	0x3d5ed49b	0.054401975
86	0x3cddbd69	0.027067857
87	0xbe097f1e	-0.13427398
88	0xbd7dad84	-0.061933056
89	0x3d67ae76	0.056562863
90	0xbdde633e	-0.10858773
91	0x3d828a1c	0.063739985
92	0xbbe05f5c	-0.006847305
93	0xbd6d95cf	-0.058004197
94	0x3d9168f5	0.07100097
95	0xbe1d2b4b	-0.15348546
96	0xbd957dcb	-0.07299384
97	0xbdfbaba9	-0.12288601
98	0x3dad9d75	0.08477298
99	0xbc5c231f	-0.013436108
100	0xbdb73150	-0.089449525
101	0x3db95488	0.09049326
102	0xbc9424b1	-0.018083902
103	0xbd1c3c09	-0.03814319
104	0x3c8ad509	0.016947286
105	0x3d485409	0.048908267
106	0xbdb15799	-0.08659286
107	0xbdf2aef6	-0.118497774
108	0x3cb3d831	0.021953674
109	0xbd0e2bff	-0.034709927
110	0xbd926913	-0.071489476
111	0x3d37023a	0.044679858
112	0xbb220615	-0.0024722863
113	0xbda9c8a4	-0.08290222
114	0x3c56aacb	0.013102244
115	0x3db722d7	0.08942192
116	0xbdecf2f3	-0.115697764
117	0xbb341874	-0.0027480396
118	0x3d02c945	0.031930227
119	0xbd8e3ba8	-0.06944972
120	0xbaaab33a	-0.0013023384
121	0xbd77acae	-0.060467415
122	0x3d9b2b66	0.07576637
123	0x3de2b518	0.11069697
124	0xbc8ad832	-0.016948793
125	0x3dd648a0	0.10463071
126	0x3e0d6ccb	0.13811032
127	0xbab355f9	-0.0013682238

ssm.nl_filter.dynamics_mod.mean_fn.h_to_z.bias f4 [2]
0	0xbbaa576f	-0.005198411
1	0x3df93e56	0.12170093

ssm.nl_filter.dynamics_mod.mean_fn.z_to_h.weight f4 [64, 2]
0	0xbeb87e62	-0.36033922
1	0xbe87bfef	-0.2651362
2	0x3ea01ffa	0.31274396
3	0xbdfc2a4a	-0.123127535
4	0xbeec4054	-0.46142828
5	0x3f15fd12	0.5858928
6	0xbe833161	-0.2562361
7	0xbde7ef03	-0.11324885
8	0xbf260c74	-0.6486275
9	0xbd4d1932	-0.050072856
10	0x3eccc50f	0.39994094
11	0xbeb0fdd1	-0.34568647
12	0x3ea514fb	0.3224257
13	0xbe919067	-0.28430483
14	0x3df4f90f	0.11961567
15	0xbe738adb	-0.23783438
16	0x3ded5e84	0.11590293
17	0xbf112e69	-0.5671144
18	0xbe3cc0bc	-0.18432897
19	0xbf12d2e9	-0.57353073
20	0xbf214a00	-0.6300354
21	0xbe12726c	-0.14301461
22	0xbe1a9259	-0.1509489
23	0x3eaae453	0.33377323
24	0xbda5c0bc	-0.08093402
25	0xbeecbdf8	-0.46238685
26	0x3f13e297	0.57767624
27	0xbd99135e	-0.07474397
28	0xbdcab1cb	-0.098971926
29	0x3f081171	0.53151613
30	0x3f1489d9	0.5802284
31	0x3ea89ac1	0.32930568
32	0xbf0ff4d7	-0.5623297
33	0x3e2523dd	0.16126962
34	0x3d05fb0c	0.03271012
35	0xbe4cb66c	-0.19991463
36	0xbe8b5c83	-0.27219018
37	0xbea382c1	-0.31935695
38	0x3f22ffdf	0.6367168
39	0x3ee10191	0.43946508
40	0x3de2d345	0.11075453
41	0x3ecff520	0.40616703
42	0xbee72aac	-0.45149744
43	0xbe06584c	-0.1311962
44	0xbeb6ef09	-0.35729244
45	0xbf11ea07	-0.5699772
46	0x3e447873	0.19186573
47	0xbf1d65c7	-0.61483425
48	0x3f043c46	0.5165447
49	0x3ec2c45c	0.38040435
50	0x3ed141d4	0.40870535
51	0x3f2b6fe7	0.66967624
52	0x3ecfb1ea	0.40565425
53	0x3d5730c2	0.052536733
54	0x3f300ed8	0.6877265
55	0x3ef5d43a	0.4801348
56	0x3f313fbe	0.6923789
57	0x3efc301b	0.49255452
58	0xbf0e24e0	-0.55525017
59	0xbde07724	-0.10960224
60	0xbed69e4a	-0.4191764
61	0xbe8b58fe	-0.27216333
62	0x3e08ddcb	0.13365857
63	0xbf3be773	-0.7340004
64	0xbe179a8a	-0.14805046
65	0xbdc93efb	-0.09826466
66	0x3f1f9552	0.6233722
67	0xbddfe8b3	-0.10933056
68	0xbee991c0	-0.4561901
69	0x3e86227a	0.2619818
70	0x3f2218b9	0.63318974
71	0x3f2f6650	0.6851549
72	0xbd91b2c4	-0.07114175
73	0xbf02ec6c	-0.51142
74	0x3de6a373	0.11261644
75	0x3e757b45	0.23972805
76	0xbf3f789f	-0.7479343
77	0xbd2a2ca6	-0.041546486
78	0x3e6da1af	0.23206209
79	0x3e6df56d	0.23238154
80	0x3e5138eb	0.20431869
81	0x3eae9427	0.34097406
82	0xbeaece39	-0.3414171
83	0xbe40086b	-0.18753211
84	0x3eebd9cf	0.46064612
85	0xbdac7a7c	-0.084217995
86	0x3ebc2992	0.36750466
87	0xbf29be38	-0.66305876
88	0xbecd6b40	-0.40120888
89	0xbeb39b00	-0.35079193
90	0xbed07f98	-0.40722346
91	0x3f27fe42	0.6562234
92	0x3d98f73d	0.07469032
93	0x3ed9523a	0.42445546
94	0x3f38f684	0.72251153
95	0xbf2efde0	-0.6835613
96	0xbcdb1e1c	-0.026747756
97	0xbc994172	-0.018707965
98	0x3dc2c3be	0.09509991
99	0xbf32db64	-0.69866014
100	0x3e527a36	0.20554432
101	0x3ef7627b	0.48317322
102	0x3e6371db	0.22211401
103	0x3eeb6162	0.45972735
104	0xbf01c81b	-0.5069596
105	0xbea19aa6	-0.315633
106	0xbef1ed9e	-0.472516
107	0xbec7b86e	-0.39007896
108	0x3cac8e0d	0.021063829
109	0x3ecb62cd	0.39723817
110	0x3ebb9c2f	0.36642596
111	0xbe817cdb	-0.2529057
112	0xbf27a90b	-0.65492314
113	0x3f1046eb	0.5635821
114	0xbf352e3b	-0.7077367
115	0x3e033839	0.12814416
116	0xbec810ab	-0.39075217
117	0xbeccb541	-0.39982036
118	0xbf26c0dc	-0.6513803
119	0xbe158199	-0.14600219
120	0x3e848c5f	0.25888345
121	0xbeee168b	-0.46501574
122	0xbf3bf790	-0.73424625
123	0x3f2a3915	0.6649335
124	0x3eed4898	0.46344447
125	0x3f31b105	0.69410735
126	0x3eb7b908	0.35883355
127	0x3e9f1425	0.31070057

ssm.nl_filter.dynamics_mod.mean_fn.z_to_h.bias f4 [64]
0	0x3eb5bfea	0.3549798
1	0x3ea1f004	0.3162843
2	0xbe9ce868	-0.30646062
3	0xbe2ac5e0	-0.16677046
4	0x3efa8a83	0.489338
5	0xbea157fd	-0.31512442
6	0x3e8f8f02	0.28038794
7	0xbed67d50	-0.4189248
8	0xbea77739	-0.32708147
9	0x3df30f54	0.11868158
10	0x3df8a33e	0.12140511
11	0x3eedc0b1	0.46436074
12	0x3eb50217	0.35353157
13	0x3f297f8e	0.6621026
14	0x3ee5c736	0.44878548
15	0xbe89c304	-0.26906598
16	0xbef04a97	-0.46931908
17	0xbf02899c	-0.50991225
18	0x3c3c2ffc	0.01148605
19	0xbed346fa	-0.41265088
20	0x3e9a953a	0.30191976
21	0x3daa985b	0.08329841
22	0xbf094ce9	-0.5363298
23	0x3f129e19	0.5727249
24	0xbe788323	-0.24268775
25	0xbf09959c	-0.5374391
26	0xbf2f6605	-0.68515044
27	0x3e504631	0.20339276
28	0x3d97dcab	0.07415136
29	0x3ed926f5	0.42412534
30	0x3f0df037	0.55444664
31	0x3d51a13e	0.051179163
32	0x3f006d40	0.501667
33	0xbe43e3ca	-0.19129863
34	0x3dd998d8	0.10624856
35	0xbf2d2593	-0.6763546
36	0x3ed0e0c8	0.40796494
37	0x3dadfb42	0.08495189
38	0xbc1dd09b	-0.009632255
39	0x3f1b8f75	0.60765773
40	0x3f1af800	0.6053467
41	0x3f2e6057	0.6811575
42	0xbba02949	-0.004887734
43	0xbf179ddf	-0.5922527
44	0xbf30bf42	-0.69041836
45	0x3b04b789	0.0020250997
46	0xbd5ffc40	-0.054683924
47	0x3e36e6c7	0.17861472
48	0x3ee94759	0.45562246
49	0x3ee825c7	0.45341322
50	0xbe19884a	-0.14993396
51	0xbe8f148e	-0.2794537
52	0xbed0fc1b	-0.4081734
53	0xbeea48ac	-0.4575857
54	0xbed5c042	-0.41748244
55	0xbecd0fe9	-0.400512
56	0xbf2b2756	-0.66856897
57	0x3e8803ff	0.2656555
58	0x3f0ef1af	0.5583753
59	0x3ec5be45	0.38621727
60	0xbe20eb69	-0.15714802
61	0x3df52dd3	0.11971631
62	0xbd9b58cf	-0.07585298
63	0x3e8ec855	0.27887216

ssm.nl_filter.initial_c_pdf.m_0 f4 [2]
0	0xbcb2a496	-0.021806996
1	0xbc507e82	-0.012725474

ssm.nl_filter.initial_c_pdf.log_Q_0 f4 [2]
0	0x3ec0842b	0.37600836
1	0x3ed00b23	0.40633497

ssm.dynamics_mod.log_Q f4 [2]
0	0xc0b5afed	-5.6777253
1	0xc0b62319	-5.6917844

ssm.dynamics_mod.mean_fn.gru_cell.weight_hh f4 [192, 64]
0	0xbdc7acb4	-0.097497374
1	0x3df3ffb5	0.119140066
2	0xbbfd567c	-0.007731257
3	0x3c50027f	0.012695908
4	0xbcb701e8	-0.022339776
5	0x3c62a6b3	0.0138336895
6	0x3e00ccd0	0.1257813
7	0x3d6e12c6	0.058123372
8	0xbd9f2e97	-0.07772558
9	0xbd9683a6	-0.07349329
10	0xbdc651fa	-0.096836045
11	0x3a61dd1a	0.00086160155
12	0xbd7b519d	-0.06135713
13	0xbcddd408	-0.027078643
14	0x3dfd9c8a	0.12383373
15	0x3c0e6e4b	0.008693288
16	0xbdf68b97	-0.120383434
17	0x3cfd38fa	0.030910958
18	0xbda0650c	-0.07831773
19	0x3d9a49e1	0.075336225
20	0x3d1f8983	0.0389495
21	0xbdd021e1	-0.10162712
22	0x3dc54139	0.09631581
23	0x3dbdbebb	0.092648946
24	0x3d4124b7	0.047154155
25	0x3d73e773	0.0595469
26	0x3b1b3547	0.0023682879
27	0x3d3a82e2	0.045534976
28	0x3dad213e	0.08453606
29	0x3e0a0caa	0.13481393
30	0x3dba31f9	0.09091563
31	0x3aa36d7c	0.0012468542
32	0xbdc5ded9	-0.096616454
33	0x3d336130	0.043793857
34	0xbd938265	-0.07202605
35	0xbdf73133	-0.12069931
36	0xbd40b7d3	-0.04705031
37	0xbd9b11db	-0.07571765
38	0x3ca3b522	0.019983832
39	0xbc4cb954	-0.012495358
40	0xbd960915	-0.07325951
41	0x3de02b21	0.10945726
42	0x3d0ecd76	0.03486391
43	0xbdf4819d	-0.11938784
44	0xbd666f6d	-0.056258608
45	0x3c98b617	0.018641515
46	0xbdbfb634	-0.09360924
47	0x3df6c868	0.12049943
48	0x3db53d0c	0.088495344
49	0x3dcc6548	0.09980255
50	0xbe0f06f0	-0.1396749
51	0x3ca88992	0.020573411
52	0xbe06df95	-0.13171227
53	0xbd8c4631	-0.068493254
54	0x3ca1c5f8	0.01974772
55	0x3d665b95	0.056239683
56	0x3d297e5d	0.041380275
57	0x3d8b2570	0.0679425
58	0xbd38bd9c	-0.0451027
59	0x3dbae695	0.09126011
60	0x3dadf275	0.08493511
61	0x3d8a0e2c	0.06740984
62	0xbd386df2	-0.045026727
63	0xbb3eb475	-0.002909926
64	0xbe08efd9	-0.13372745
65	0x3c03fa40	0.00805527
66	0xbd9f3023	-0.07772853
67	0x3d356fd2	0.044296093
68	0x3de5afd9	0.11215181
69	0x3d58ad13	0.05289943
70	0xba8830eb	-0.0010390555
71	0xbd31a8d1	-0.043373886
72	0x3bc1597e	0.005900561
73	0xbde6f261	-0.11276699
74	0x3d6caa2e	0.057779483
75	0xbd2b8a9f	-0.041880246
76	0x3caa52d1	0.020791443
77	0x3de7ed38	0.11324543
78	0xbc3b3cec	-0.011428099
79	0x3def2935	0.116777815
80	0x3d822671	0.06354988
81	0xbd74d64c	-0.059774682
82	0xbcafaa10	-0.021443397
83	0x3dbc9d87	0.092097335
84	0xbc6ace04	-0.0143313445
85	0xbdabaea9	-0.08382923
86	0x3dec01c2	0.11523773
87	0x3d6fa45c	0.058506355
88	0xba531458	-0.00080520427
89	0xbd168115	-0.036744196
90	0x3daa9abf	0.08330297
91	0x3c92faa1	0.017941775
92	0xbdcf80b7	-0.10131972
93	0xbde116bc	-0.10990664
94	0x3ddac4a6	0.10682039
95	0xbce86c8a	-0.028372068
96	0xbdeed18a	-0.1166106
97	0xbde6e78a	-0.11274631
98	0xbdc0dab7	-0.094167165
99	0x3db0a2ba	0.08624788
100	0x3d5f4425	0.054508347
101	0x3d21e3f2	0.039524026
102	0x3dc3c6d6	0.09559409
103	0x3d58ee01	0.052961353
104	0x3d75409c	0.05987607
105	0x3d086f84	0.033309475
106	0xbdee54dc	-0.116372794
107	0xbd576f66	-0.052596472
108	0x3c67f20c	0.01415683
109	0xbda0cb1c	-0.0785124
110	0x3d2ccd39	0.042187903
111	0xbde8865f	-0.11353754
112	0x3dd52dcc	0.10409126
113	0xbdd3d355	-0.10343043
114	0xbdc4ad8d	-0.09603415
115	0x3e031f0a	0.12804809
116	0x3ddeadd0	0.10872996
117	0x3dfc6f06	0.123258635
118	0x3d5cab2c	0.05387418
119	0xbd55ec3a	-0.052227236
120	0x3dc9b95b	0.09849807
121	0xbdd79110	-0.10525715
122	0xbdff28f9	-0.12458987
123	0x3dd2e396	0.10297315
124	0xbe0fd52f	-0.14046167
125	0x3d5733be	0.05253958
126	0xbddf3e5a	-0.109005645
127	0xbd9b051b	-0.07569333
128	0x3d91c181	0.07116986
129	0x3daf157f	0.08549022
130	0xbd022dbb	-0.031781893
131	0x3da435bb	0.08018061
132	0xbced955a	-0.02900188
133	0xbd8a27a5	-0.06745843
134	0xbe12a224	-0.14319664
135	0xbd9f2d61	-0.07772327
136	0xbd9c5a6e	-0.076344356
137	0xbda3f9e8	-0.0800665
138	0x3d35eacc	0.044413373
139	0xbcd52529	-0.026018696
140	0x3caadab0	0.020856231
141	0xbdeb3a06	-0.114856765
142	0xbae38f28	-0.001736139
143	0xbd99ad73	-0.07503786
144	0x3da1e671	0.07905281
145	0x3dcc9b01	0.09990502
146	0x3c5c67d3	0.013452488
147	0x3dadc467	0.084847264
148	0xbd6ffdb8	-0.058591574
149	0x3d8ed8ee	0.0697497
150	0xbd53d9b6	-0.051721297
151	0x3dde20db	0.108461104
152	0x3cef6b1b	0.029225877
153	0x3d0e2084	0.034698978
154	0x3ddd1d39	0.107965894
155	0xbce1bd20	-0.027556002
156	0xbd818076	-0.0632333
157	0x3ddf7166	0.10910301
158	0xbd551a4a	-0.052027024
159	0x3d0c8f02	0.03431607
160	0x3ccd2bb2	0.02504525
161	0x3aab02c5	0.001304709
162	0xbd8916dc	-0.06693813
163	0x3ddc1710	0.10746586
164	0x3d1b1309	0.03785995
165	0xbddd4751	-0.10804618
166	0x3e10ed69	0.14153065
167	0xbd9fe42c	-0.07807192
168	0xbda77b15	-0.08177773
169	0x3d86fa95	0.065907635
170	0x3cb88eb7	0.02252899
171	0x3da54793	0.08070292
172	0x3dc1f919	0.0947134
173	0x3cdd14a1	0.026987376
174	0xbdfa03d2	-0.1220776
175	0x3d9e4153	0.07727303
176	0x3d47b45c	0.04875599
177	0x3dba5d35	0.09099809
178	0x3d8f3e2a	0.06994279
179	0xbdef1e88	-0.11675745
180	0x3d90bcc0	0.07067251
181	0xbdd593be	-0.1042857
182	0xbde37c0a	-0.11107643
183	0x3dcb8c7e	0.09938906
184	0xbd4b6a8d	-0.04966216
185	0xbcc78b32	-0.024358366
186	0x3ddfa713	0.10920539
187	0x3da851f7	0.082187586
188	0x3c84aed2	0.016196642
189	0xbdaf9302	-0.085729614
190	0xbde98d54	-0.11403909
191	0xbc2739be	-0.010206638
192	0x3cbb1e7d	0.022841686
193	0x3d8b9da4	0.06817177
194	0xbb84b013	-0.00404931
195	0x3dfaa30c	0.1223813
196	0xbdf306c2	-0.11866523
197	0x3e04203c	0.12902921
198	0xbb81487a	-0.0039454075
199	0x3dd02dfc	0.10165021
200	0x3d1d2e83	0.038374435
201	0x3cae472d	0.021274174
202	0xbdf3b1cd	-0.11899147
203	0xbd1cd8cf	-0.038292702
204	0xbe17a941	-0.14810659
205	0xbe0c8bad	-0.13725157
206	0xbd33f7d5	-0.043937523
207	0x3dde8764	0.108656675
208	0x3dc112cb	0.094274126
209	0xbd29aa8d	-0.041422416
210	0xbb854e03	-0.0040681376
211	0x3e01118f	0.12604354
212	0xbc89b099	-0.016807841
213	0xbcfd60c5	-0.030929932
214	0x3e23a59b	0.15981142
215	0xbd6eaa1c	-0.058267698
216	0x3d989a69	0.074513264
217	0x3da606bf	0.081067555
218	0xbd69965d	-0.057028163
219	0x3d3961ba	0.045259215
220	0x3d81d7cc	0.06339988
221	0xbd9e2e80	-0.07723713
222	0xbd97d36c	-0.074133724
223	0x3d4fdd5f	0.050748225
224	0xbdf99035	-0.121857084
225	0x3e17caf0	0.14823508
226	0x3d104b93	0.035228323
227	0x3dd13dd6	0.102168724
228	0x3ce86249	0.028367179
229	0x3ce79738	0.028270349
230	0x3d4ad0c4	0.0495155
231	0xbca2e5b9	-0.01988493
232	0xbdc25f03	-0.09490778
233	0xbd6bb978	-0.057549924
234	0x3d8d755b	0.069071494
235	0x3c347f04	0.011016611
236	0x3e0c67a1	0.13711406
237	0xbd7ad096	-0.06123408
238	0xbb2212b7	-0.0024730393
239	0xbdd4658f	-0.10370933
240	0x3ce5b08a	0.028038282
241	0x3cc7971b	0.024364045
242	0xbb2b0a76	-0.0026098765
243	0xbd45235e	-0.048129432
244	0x3e41c38a	0.18922248
245	0x3e232c41	0.1593485
246	0x3d2696f5	0.040671308
247	0x3db4f373	0.08835497
248	0xbd97ffa8	-0.074218094
249	0x3b77ebf4	0.0037829848
250	0xbe229624	-0.15877587
251	0xbcc322e6	-0.023820352
252	0xbbb19f7b	-0.005420623
253	0x3cc7faca	0.024411578
254	0x3de6aa7c	0.11262986
255	0xbd6b6070	-0.057465017

ssm.dynamics_mod.mean_fn.gru_cell.bias_ih f4 [192]
0	0x3d2c4d73	0.04206605
1	0xbcec0bd2	-0.02881423
2	0xbd76efa4	-0.060287133
3	0xbd51d8a1	-0.051231984
4	0x3ddfdd31	0.10930861
5	0xbe1c5de2	-0.15270188
6	0x3d4a474a	0.049384393
7	0xbd33bc03	-0.043880474
8	0x3db69da1	0.08916784
9	0xbd396946	-0.045266412
10	0x3caa8241	0.020814063
11	0xbe01726b	-0.12641303
12	0x3d3e7221	0.04649556
13	0x3beb6849	0.0071840626
14	0xbdcc19d2	-0.09965862
15	0xbdd302df	-0.10303282
16	0xbd50645c	-0.05087696
17	0x3d72387b	0.059135895
18	0x3e191e4b	0.14952962
19	0xbc8a3d18	-0.016874835
20	0x3d015f83	0.031585228
21	0x3df48145	0.11938719
22	0xbd26adee	-0.040693216
23	0xbe09c340	-0.13453388
24	0x3dc14fd1	0.09439052
25	0xbb916db5	-0.004438127
26	0xbc9e0d0e	-0.019293334
27	0x3e022830	0.12710643
28	0x3cbf3a54	0.023343243
29	0x3dd7774f	0.10520803
30	0x3bac10e4	0.005251037
31	0x3cffa2a1	0.031205477
32	0xbd9eafed	-0.07748399
33	0xbc4457cf	-0.011983826
34	0x3d13ca5e	0.036081664
35	0x3df30955	0.11867014
36	0xbda409db	-0.08009692
37	0xbdb1adfe	-0.086757645
38	0x3df5bf83	0.119994186
39	0xbd5bfa73	-0.053705644
40	0xbad72a36	-0.0016415778
41	0x3d9705a4	0.07374123
42	0xbc2901d2	-0.010315375
43	0x3d58628e	0.052828364
44	0xbc311424	-0.010808025
45	0x3c1abfb8	0.009445123
46	0x3ddda803	0.10823061
47	0x3bd0ae81	0.0063684587
48	0x3d21a71f	0.03946602
49	0xbdc8fcec	-0.09813866
50	0x3c9d7081	0.019218685
51	0x3db3f57e	0.08787058
52	0x3d7a519e	0.061112992
53	0x3d6b6a26	0.057474278
54	0x3dc05d7e	0.09392832
55	0x3d985746	0.07438521
56	0xbd46311e	-0.048386686
57	0x3d411746	0.047141336
58	0x3c93f334	0.018060304
59	0x3dc4ec2d	0.096153595
60	0x3de1ba26	0.11021833
61	0xbd486a58	-0.048929542
62	0x3cdd4479	0.02701019
63	0x3db490fb	0.08816715
64	0x3d7f5e34	0.0623457
65	0xbe0c9de3	-0.13732104
66	0xbdca84b0	-0.098885894
67	0x3cadf26e	0.021233764
68	0x3dcfe4a1	0.101510294
69	0xbdb2434c	-0.08704242
70	0x3cdc2759	0.026874231
71	0xbdda6dfd	-0.1066551
72	0xbd543b5c	-0.051814422
73	0x3e052285	0.1300145
74	0xbd64df31	-0.055876914
75	0x3b8502f2	0.004059189
76	0x3cbee265	0.023301313
77	0x3d82e81d	0.06391928
78	0xbd5e7252	-0.054308243
79	0xbd940795	-0.07228009
80	0xbcf23009	-0.02956392
81	0xbc406268	-0.011742212
82	0x3d3630b6	0.044480048
83	0x3d670188	0.056397945
84	0x3e07eba7	0.13273488
85	0x3d3d3de8	0.046201617
86	0xbddd7c6c	-0.10814747
87	0xbcfc149c	-0.030771546
88	0x3d1b72cb	0.037951272
89	0xbce4968a	-0.027903814
90	0xbcc83f97	-0.024444385
91	0x3da80625	0.08204297
92	0xbd5499da	-0.051904537
93	0xbe00ebce	-0.12589952
94	0xbd8670cc	-0.06564483
95	0x3dcf6ed6	0.10128562
96	0x3d24824d	0.040163327
97	0x3de82251	0.1133467
98	0x3d715609	0.05891994
99	0x3d88c085	0.06677345
100	0x3d825f0d	0.06365786
101	0xbd9c79bb	-0.07640406
102	0x3e01a346	0.1265994
103	0x3d699e41	0.05703569
104	0xbd88cee0	-0.06680083
105	0x3dec725d	0.115452506
106	0xbe13f0a4	-0.14447266
107	0x3d2070a4	0.039169922
108	0xbc505f95	-0.012718101
109	0x3d48d7fb	0.0490341
110	0xbd7f42cc	-0.06231956
111	0xbd89f365	-0.06735877
112	0xbc9c0044	-0.019043095
113	0xbcf6582a	-0.030071337
114	0xbdc2012c	-0.0947288
115	0xbd9a70d5	-0.07541052
116	0xbdd6cb81	-0.10488034
117	0x3d9a586f	0.075363986
118	0xbd02fc6e	-0.031979017
119	0xbd4e4145	-0.050355215
120	0xbdc44de1	-0.09585167
121	0xbdb42793	-0.08796611
122	0x3d898168	0.067141354
123	0xbceca6e2	-0.02888817
124	0x3dd8570d	0.105634786
125	0xbc1cd6b8	-0.009572677
126	0xbda2e2ca	-0.07953413
127	0x3cf49f64	0.02986116
128	0xbd328dcb	-0.043592256
129	0xbdf4c7b0	-0.1195215
130	0xbb7a64a5	-0.0038206961
131	0x3ad334d9	0.0016113772
132	0x3dfd0452	0.1235434
133	0x3ca3bc5e	0.019987281
134	0xbdc731fa	-0.09726329
135	0xbd962026	-0.073303506
136	0x3e04f63e	0.12984559
137	0x3d908a07	0.070575766
138	0x3b0bb491	0.0021317343
139	0x3b26d0c2	0.002545402
140	0x3d332933	0.043740463
141	0xbd778e52	-0.06043846
142	0xbdb63c54	-0.088982254
143	0x3d714184	0.05890037
144	0x3de0943d	0.10965774
145	0x3acdbc31	0.0015696344
146	0x3d790d03	0.060803425
147	0xbda83706	-0.0821362
148	0x3d34e451	0.044163052
149	0xbd512664	-0.051062003
150	0xbd3d70bd	-0.046250094
151	0x3d425d82	0.047452457
152	0xbaba9e44	-0.0014237841
153	0xbce1c4ee	-0.027559724
154	0xbd7103a6	-0.05884137
155	0xbc28ca01	-0.010302068
156	0x3db6fae7	0.089345746
157	0x3cdec0ed	0.027191604
158	0xbd2ef686	-0.04271557
159	0xbd9783fc	-0.07398221
160	0xbd55a25e	-0.0521568
161	0xbd186550	-0.037205994
162	0x3daca2de	0.08429502
163	0x3ca2ca71	0.019871922
164	0xbcfdaae7	-0.030965282
165	0xbc8111ae	-0.0157555
166	0x3d12394a	0.035699166
167	0x3ddbfaea	0.107412174
168	0x3d062317	0.032748308
169	0x3bd4a15d	0.0064889626
170	0xbd56ecf8	-0.052472085
171	0xbc3125e8	-0.01081226
172	0xbd491f63	-0.0491022
173	0x3d872839	0.06599469
174	0x3dda355c	0.10654709
175	0x3d817e1d	0.06322882
176	0xbdb5ccad	-0.088769294
177	0xbd3de2f4	-0.046359017
178	0xbdace7b5	-0.08442632
179	0xbc1beedc	-0.009517398
180	0xbda49ac2	-0.0803733
181	0x3d64295f	0.055703517
182	0x3cd0f251	0.02550617
183	0x3dc38c6b	0.09548267
184	0x3db78c32	0.08962287
185	0xbdb47a59	-0.088123985
186	0xbdb033ba	-0.08603616
187	0xbdd994da	-0.10624094
188	0x3d26aae2	0.04069031
189	0x3df06eff	0.11739921
190	0x3ba9c314	0.005180726
191	0x3dcd0dd4	0.10012403

ssm.dynamics_mod.mean_fn.gru_cell.bias_hh f4 [192]
0	0xbd8bce47	-0.06826454
1	0x3ceb6a62	0.02873725
2	0xbb80768f	-0.0039203833
3	0x3d2c6993	0.04209287
4	0x3d97062b	0.07374223
5	0x3c6f7df3	0.014617431
6	0x3e2a8a4e	0.16654322
7	0xbdac8c12	-0.08425154
8	0xbd63ba32	-0.05559749
9	0xbddf6f25	-0.10909871
10	0xbcf22fff	-0.029563902
11	0x3b880480	0.004150927
12	0x3d866dcb	0.0656391
13	0x3d93ca5f	0.072163336
14	0xbda9928a	-0.08279903
15	0x3d31ad0a	0.043377914
16	0x3c3f86b6	0.011689832
17	0xbdc33da2	-0.0953324
18	0xbc4bbcf4	-0.012435187
19	0xbd6ce0a4	-0.05783142
20	0x3d7b874c	0.061408326
21	0x3da58757	0.08082455
22	0x3d4abcfa	0.04949663
23	0x3dcd949b	0.1003811
24	0xbda61825	-0.08110074
25	0xbc37c126	-0.011215484
26	0x3d0dba35	0.03460141
27	0xbd078a98	-0.033091158
28	0x3dc3d8b7	0.095628195
29	0x3d63eb59	0.055644367
30	0xbd3a1549	-0.045430455
31	0x3d7d83cb	0.061893266
32	0x3b85bcc7	0.004081342
33	0xbca1dc0d	-0.019758249
34	0xbd5c4314	-0.05377491
35	0xbd521cd8	-0.05129704
36	0x3d0badfe	0.03410148
37	0x3de353c8	0.110999644
38	0x3d0a176c	0.033713743
39	0xbbe36fc9	-0.006940816
40	0x3dcde51c	0.10053465
41	0xbd244a2e	-0.040109806
42	0x3d3410f0	0.043961465
43	0xbd1dca8a	-0.038523234
44	0x3d93978b	0.07206639
45	0x3e04415f	0.12915562
46	0xbbcb09c5	-0.006196233
47	0x3d0d971d	0.03456794
48	0x3d44f472	0.048084684
49	0xbdb3989a	-0.08769341
50	0xbce9bac9	-0.028531449
51	0xbcc78ad4	-0.02435819
52	0x3dd5501c	0.1041567
53	0xbcc1cb4c	-0.02365651
54	0x3dc23d22	0.094843164
55	0xbd7906f7	-0.060797658
56	0xbda8d086	-0.08242898
57	0x3db83459	0.089943595
58	0xbd622de0	-0.05521953
59	0x3c8422f5	0.01612995
60	0x3cc47866	0.023983192
61	0xbd3e58c8	-0.046471387
62	0x3dab9902	0.08378793
63	0x3c896c70	0.01677534
64	0xbdd649d8	-0.10463303
65	0x3d2be944	0.041970506
66	0x3d9c50bc	0.07632586
67	0xbdd75032	-0.10513343
68	0x3b270ab9	0.002548857
69	0x3cfca32d	0.030839527
70	0xbdaa6313	-0.08319678
71	0x3df62d99	0.12020416
72	0xbd2db264	-0.042406455
73	0xbd0785b4	-0.033086494
74	0xbd4711fb	-0.048601132
75	0xbdba4628	-0.090954125
76	0x3d5fcbad	0.0546376
77	0x3d979b9c	0.07402727
78	0x3ddc26b6	0.10749571
79	0xbd90e757	-0.070753746
80	0x3db49b0d	0.08818636
81	0x3cbd5f63	0.023116773
82	0x3e230493	0.15919714
83	0xb983cca8	-0.00025138748
84	0x3cc3460a	0.023837108
85	0xbd6243d6	-0.055240475
86	0x3ca9bc59	0.020719694
87	0xbd7a54b4	-0.061115935
88	0x3d92fc74	0.07177058
89	0xbc96ae42	-0.01839364
90	0xbdfe4b38	-0.124166906
91	0x3deff037	0.11715739
92	0x3c381aa4	0.01123682
93	0x3cebe8c6	0.028797518
94	0x3da80521	0.08204103
95	0x3da4cd0b	0.08046921
96	0x3ce05b9f	0.027387438
97	0x3dd2807b	0.10278412
98	0x3e321f6e	0.17394802
99	0xb8eb89f8	-0.00011231372
100	0x3e28a81b	0.16470377
101	0x3ca959ba	0.020672668
102	0x3bb6729e	0.0055678627
103	0x3dd298ec	0.10283074
104	0x3d84fc5c	0.06493446
105	0xbcf2d317	-0.029641671
106	0xbd2a4cf3	-0.04157729
107	0x3d98a388	0.07453066
108	0xbe055fc3	-0.13024811
109	0xbe1a3d6c	-0.15062493
110	0xbd82b934	-0.06382981
111	0x3d1630b3	0.036667537
112	0xbc7023b9	-0.014656954
113	0xbdb92680	-0.090405464
114	0x3d82aa9c	0.063801974
115	0xbcfa4215	-0.030549088
116	0xbd918dbf	-0.07107114
117	0x3e0c3d45	0.13695247
118	0x3dba8116	0.091066524
119	0x3da6fe9b	0.08154031
120	0xbd9f99d3	-0.077930115
121	0x3e00cc30	0.12577891
122	0x3db2ee46	0.08736853
123	0x3dce743e	0.10080765
124	0xbdae524b	-0.0851179
125	0xbd250aa0	-0.040293336
126	0xbc89f596	-0.016840737
127	0x3d2ad1bf	0.041703936
128	0x3d7a5851	0.06111938
129	0x3dc6128f	0.096715085
130	0xbad5526a	-0.0016275172
131	0xbc92598a	-0.017864961
132	0xbddea17f	-0.10870647
133	0xbd116a78	-0.035501927
134	0xbba72baa	-0.0051016407
135	0x3df698b7	0.12040847
136	0x3dc2d534	0.095133215
137	0xbc097d43	-0.008391681
138	0x3d8785ee	0.06617342
139	0x3d93aa24	0.07210186
140	0xbccff404	-0.02538491
141	0xbdd36d47	-0.103235774
142	0xbdbcb016	-0.09213273
143	0xbdbaa3bb	-0.0911326
144	0x3d1898ca	0.037255086
145	0x3b4bb0d9	0.0031080751
146	0xbd560201	-0.052248005
147	0x3db138a5	0.08653382
148	0x3c615a0b	0.013754378
149	0xbd0eb253	-0.034838032
150	0xbd94fe6d	-0.0727509
151	0xbce50c24	-0.02795989
152	0xbde41a15	-0.11137787
153	0xbcc32b62	-0.023824397
154	0x3ddff46f	0.10935294
155	0x3b3cd035	0.0028810624
156	0x3c6843ae	0.014176292
157	0x3d223869	0.03960458
158	0x3d1d1f1e	0.038359754
159	0x3d10e054	0.035370186
160	0x3d08d4d6	0.0334061
161	0xbd916948	-0.07100159
162	0xbdd6c5ba	-0.10486932
163	0x3d0911ea	0.03346435
164	0x3d0df6a5	0.034659047
165	0xbc995260	-0.018716037
166	0x3b5144aa	0.0031931796
167	0x3dc20fc7	0.094756655
168	0x3de06556	0.10956828
169	0x3d89c2d2	0.06726612
170	0x3d7b51f5	0.061357457
171	0xbd5d3c89	-0.05401281
172	0x3de91960	0.11381793
173	0xbd293030	-0.04130572
174	0xbe01707b	-0.12640564
175	0x3d714408	0.05890277
176	0xbdac76de	-0.084211096
177	0xbcea7534	-0.02862034
178	0xbd903c2b	-0.07042726
179	0x3dbb7286	0.09152703
180	0xbd6a17e5	-0.057151694
181	0x3d6e3207	0.05815318
182	0xbd9639e7	-0.07335263
183	0x3d2bee91	0.04197556
184	0x3dea3610	0.11436093
185	0xbdbae2eb	-0.091253124
186	0xbdf6b1c5	-0.120456256
187	0x3d805d9b	0.06267854
188	0xbd9c8950	-0.07643378
189	0x3ce5e01b	0.028060963
190	0x3cad91fe	0.021187779
191	0x3d876626	0.0661128

ssm.dynamics_mod.mean_fn.h_to_z.weight f4 [2, 64]
0	0xbda1d8b2	-0.079026595
1	0xbb765918	-0.0037589725
2	0xbdf38c7b	-0.11892029
3	0x3d0641d8	0.032777637
4	0x3b1af297	0.002364313
5	0xbd31fd5c	-0.043454513
6	0x3e0570a0	0.13031244
7	0x3cbd922b	0.023140987
8	0x3d1c6975	0.03818651
9	0xbd896c6d	-0.06710134
10	0xbd4850a9	-0.04890505
11	0xbdda7cb3	-0.10668316
12	0xbde47396	-0.11154859
13	0xbd6931d1	-0.056932274
14	0x3b03aa47	0.0020090507
15	0x3e03f83a	0.1288766
16	0xbe05ef6e	-0.13079616
17	0xbcee8221	-0.029114785
18	0xbe0f66ad	-0.14004011
19	0x3d38e30b	0.0451384
20	0xbd28a118	-0.041169256
21	0x3d1607b3	0.036628436
22	0x3dae4303	0.08508875
23	0xbd8c0ded	-0.06838594
24	0x3cec4c0f	0.028844861
25	0x3dc89130	0.09793317
26	0xbd30fbab	-0.04320876
27	0x3cfa15f4	0.030528046
28	0xbdc050b7	-0.09390395
29	0x3d7bbad9	0.06145749
30	0x3dabe430	0.08393133
31	0x3df70233	0.12060966
32	0xbd6d22c1	-0.057894472
33	0xbd00d0eb	-0.03144924
34	0xbcfb24e1	-0.030657234
35	0x3db53bd9	0.08849306
36	0xbca5e9c4	-0.02025307
37	0x3e04436f	0.12916349
38	0xbe0ce40f	-0.13758872
39	0x3d058360	0.032595992
40	0x3d6292f5	0.05531593
41	0x3d18177d	0.037131775
42	0xbceee8a9	-0.029163675
43	0xbd7323dc	-0.05936037
44	0x3c84387b	0.016140213
45	0x3b8cb3b2	0.0042938823
46	0xbddc6911	-0.10762227
47	0x3e1c89d8	0.15286958
48	0xbcb961d9	-0.022629665
49	0xbc8eec6b	-0.017446717
50	0xbdabdf71	-0.083922274
51	0xbdaad174	-0.08340731
52	0xbb97d394	-0.0046333764
53	0xbdfb46e2	-0.12269379
54	0xbc00e099	-0.007866048
55	0xbdb3a140	-0.0877099
56	0x3c0813c2	0.008305492
57	0xbe0b4515	-0.13600571
58	0x3ca7a59f	0.020464716
59	0x3d7b7e70	0.061399877
60	0x3d83b63a	0.06431241
61	0xbdfdca63	-0.12392118
62	0xbd09c71d	-0.033637155
63	0xb9b3e032	-0.0003430858
64	0x3c8fdd84	0.017561682
65	0xbbcb421b	-0.0062029487
66	0xbaa7bf7b	-0.0012798154
67	0xbd0ab730	-0.033866107
68	0xbdb2826a	-0.08716281
69	0x3d38fa63	0.045160662
70	0xbda53d94	-0.08068386
71	0xbd7a1c92	-0.061062403
72	0xbc8c4635	-0.017123321
73	0xbe0b013f	-0.13574694
74	0xbda78799	-0.0818016
75	0xbda3e0da	-0.080018714
76	0x3d91114f	0.070833795
77	0xbcafd68b	-0.021464607
78	0x3d17b93b	0.037041884
79	0x3e02dc30	0.12779307
80	0x3df97fba	0.12182565
81	0x3de63a63	0.11241605
82	0xbd5c59bd	-0.05379652
83	0xbdb1dcc6	-0.08684687
84	0x3dbbcf6e	0.091704234
85	0x3d5ed49b	0.054401975
86	0x3cddbd69	0.027067857
87	0xbe097f1e	-0.13427398
88	0xbd7dad84	-0.061933056
89	0x3d67ae76	0.056562863
90	0xbdde633e	-0.10858773
91	0x3d828a1c	0.063739985
92	0xbbe05f5c	-0.006847305
93	0xbd6d95cf	-0.058004197
94	0x3d9168f5	0.07100097
95	0xbe1d2b4b	-0.15348546
96	0xbd957dcb	-0.07299384
97	0xbdfbaba9	-0.12288601
98	0x3dad9d75	0.08477298
99	0xbc5c231f	-0.013436108
100	0xbdb73150	-0.089449525
101	0x3db95488	0.09049326
102	0xbc9424b1	-0.018083902
103	0xbd1c3c09	-0.03814319
104	0x3c8ad509	0.016947286
105	0x3d485409	0.048908267
106	0xbdb15799	-0.08659286
107	0xbdf2aef6	-0.118497774
108	0x3cb3d831	0.021953674
109	0xbd0e2bff	-0.034709927
110	0xbd926913	-0.071489476
111	0x3d37023a	0.044679858
112	0xbb220615	-0.0024722863
113	0xbda9c8a4	-0.08290222
114	0x3c56aacb	0.013102244
115	0x3db722d7	0.08942192
116	0xbdecf2f3	-0.115697764
117	0xbb341874	-0.0027480396
118	0x3d02c945	0.031930227
119	0xbd8e3ba8	-0.06944972
120	0xbaaab33a	-0.0013023384
121	0xbd77acae	-0.060467415
122	0x3d9b2b66	0.07576637
123	0x3de2b518	0.11069697
124	0xbc8ad832	-0.016948793
125	0x3dd648a0	0.10463071
126	0x3e0d6ccb	0.13811032
127	0xbab355f9	-0.0013682238

ssm.dynamics_mod.mean_fn.h_to_z.bias f4 [2]
0	0xbbaa576f	-0.005198411
1	0x3df93e56	0.12170093

ssm.dynamics_mod.mean_fn.z_to_h.weight f4 [64, 2]
0	0xbeb87e62	-0.36033922
1	0xbe87bfef	-0.2651362
2	0x3ea01ffa	0.31274396
3	0xbdfc2a4a	-0.123127535
4	0xbeec4054	-0.46142828
5	0x3f15fd12	0.5858928
6	0xbe833161	-0.2562361
7	0xbde7ef03	-0.11324885
8	0xbf260c74	-0.6486275
9	0xbd4d1932	-0.050072856
10	0x3eccc50f	0.39994094
11	0xbeb0fdd1	-0.34568647
12	0x3ea514fb	0.3224257
13	0xbe919067	-0.28430483
14	0x3df4f90f	0.11961567
15	0xbe738adb	-0.23783438
16	0x3ded5e84	0.11590293
17	0xbf112e69	-0.5671144
18	0xbe3cc0bc	-0.18432897
19	0xbf12d2e9	-0.57353073
20	0xbf214a00	-0.6300354
21	0xbe12726c	-0.14301461
22	0xbe1a9259	-0.1509489
23	0x3eaae453	0.33377323
24	0xbda5c0bc	-0.08093402
25	0xbeecbdf8	-0.46238685
26	0x3f13e297	0.57767624
27	0xbd99135e	-0.07474397
28	0xbdcab1cb	-0.098971926
29	0x3f081171	0.53151613
30	0x3f1489d9	0.5802284
31	0x3ea89ac1	0.32930568
32	0xbf0ff4d7	-0.5623297
33	0x3e2523dd	0.16126962
34	0x3d05fb0c	0.03271012
35	0xbe4cb66c	-0.19991463
36	0xbe8b5c83	-0.27219018
37	0xbea382c1	-0.31935695
38	0x3f22ffdf	0.6367168
39	0x3ee10191	0.43946508
40	0x3de2d345	0.11075453
41	0x3ecff520	0.40616703
42	0xbee72aac	-0.45149744
43	0xbe06584c	-0.1311962
44	0xbeb6ef09	-0.35729244
45	0xbf11ea07	-0.5699772
46	0x3e447873	0.19186573
47	0xbf1d65c7	-0.61483425
48	0x3f043c46	0.5165447
49	0x3ec2c45c	0.38040435
50	0x3ed141d4	0.40870535
51	0x3f2b6fe7	0.66967624
52	0x3ecfb1ea	0.40565425
53	0x3d5730c2	0.052536733
54	0x3f300ed8	0.6877265
55	0x3ef5d43a	0.4801348
56	0x3f313fbe	0.6923789
57	0x3efc301b	0.49255452
58	0xbf0e24e0	-0.55525017
59	0xbde07724	-0.10960224
60	0xbed69e4a	-0.4191764
61	0xbe8b58fe	-0.27216333
62	0x3e08ddcb	0.13365857
63	0xbf3be773	-0.7340004
64	0xbe179a8a	-0.14805046
65	0xbdc93efb	-0.09826466
66	0x3f1f9552	0.6233722
67	0xbddfe8b3	-0.10933056
68	0xbee991c0	-0.4561901
69	0x3e86227a	0.2619818
70	0x3f2218b9	0.63318974
71	0x3f2f6650	0.6851549
72	0xbd91b2c4	-0.07114175
73	0xbf02ec6c	-0.51142
74	0x3de6a373	0.11261644
75	0x3e757b45	0.23972805
76	0xbf3f789f	-0.7479343
77	0xbd2a2ca6	-0.041546486
78	0x3e6da1af	0.23206209
79	0x3e6df56d	0.23238154
80	0x3e5138eb	0.20431869
81	0x3eae9427	0.34097406
82	0xbeaece39	-0.3414171
83	0xbe40086b	-0.18753211
84	0x3eebd9cf	0.46064612
85	0xbdac7a7c	-0.084217995
86	0x3ebc2992	0.36750466
87	0xbf29be38	-0.66305876
88	0xbecd6b40	-0.40120888
89	0xbeb39b00	-0.35079193
90	0xbed07f98	-0.40722346
91	0x3f27fe42	0.6562234
92	0x3d98f73d	0.07469032
93	0x3ed9523a	0.42445546
94	0x3f38f684	0.72251153
95	0xbf2efde0	-0.6835613
96	0xbcdb1e1c	-0.026747756
97	0xbc994172	-0.018707965
98	0x3dc2c3be	0.09509991
99	0xbf32db64	-0.69866014
100	0x3e527a36	0.20554432
101	0x3ef7627b	0.48317322
102	0x3e6371db	0.22211401
103	0x3eeb6162	0.45972735
104	0xbf01c81b	-0.5069596
105	0xbea19aa6	-0.315633
106	0xbef1ed9e	-0.472516
107	0xbec7b86e	-0.39007896
108	0x3cac8e0d	0.021063829
109	0x3ecb62cd	0.39723817
110	0x3ebb9c2f	0.36642596
111	0xbe817cdb	-0.2529057
112	0xbf27a90b	-0.65492314
113	0x3f1046eb	0.5635821
114	0xbf352e3b	-0.7077367
115	0x3e033839	0.12814416
116	0xbec810ab	-0.39075217
117	0xbeccb541	-0.39982036
118	0xbf26c0dc	-0.6513803
119	0xbe158199	-0.14600219
120	0x3e848c5f	0.25888345
121	0xbeee168b	-0.46501574
122	0xbf3bf790	-0.73424625
123	0x3f2a3915	0.6649335
124	0x3eed4898	0.46344447
125	0x3f31b105	0.69410735
126	0x3eb7b908	0.35883355
127	0x3e9f1425	0.31070057
